weight.pt (torch, 180603 bytes, 10 tensors)

conv1.weight f4 [6, 1, 5, 5]
-0.00746764 -0.060362536 -0.20476414 -0.06821015 0.07092329 0.08442866 -0.118820675 -0.13179827
-0.13837764 0.081894755 0.13115169 0.038504586 -0.28234437 -0.23174895 -0.14150429 0.19630349
0.26821458 0.14516093 -0.09020146 -0.13162011 0.03735246 0.2055336 0.116095155 0.2388171
0.012319932 0.073977344 0.1882436 0.10862075 0.14098826 0.097819574 -0.21853977 0.014714601
-0.0849144 -0.07322247 -0.111249946 -0.24166678 -0.21907984 -0.035971064 0.00024172376 0.020023532
0.08727496 -0.109185055 -0.14351928 -0.098862514 -0.10559575 0.0709468 0.12141577 0.06116334
0.036539875 0.057158038 0.06581233 0.21504569 0.032451812 -0.08404727 0.10012656 -0.054122258
0.23489027 -0.20256652 -0.25765526 -0.036135618 -0.0045067365 0.37331215 0.10175515 -0.06730376
0.10324404 -0.16159606 0.20540807 0.37621602 0.10820639 0.05706726 -0.14339067 -0.18755195
0.03400831 0.12121445 0.044361055 0.04805549 0.2298388 0.08026945 0.094366044 -0.053496275
-0.1998877 0.2874331 0.086762175 -0.21910636 -0.073684864 -0.009762262 0.24765882 -0.06524417
-0.036178175 -0.1384812 0.06877234 0.17251188 -0.019883733 0.019451851 -0.12993672 0.09305271
0.11695263 -0.046787675 -0.097308666 -0.060392205 0.05476418 0.058192365 0.03431967 0.034476284
-0.10077581 0.09487227 -0.021237321 -0.08368651 -0.020404955 0.056747038 0.069962084 0.18508658
0.10955345 0.30610636 0.3405396 -0.06283482 0.01808202 0.0875709 -0.056549348 0.023977237
0.045260035 -0.0032057115 -0.19496746 -0.23125097 -0.2328577 -0.015528405 -0.0002643926 -0.10207858
-0.14717884 -0.20960549 -0.053309277 -0.09336804 -0.1609723 -0.0021443064 0.13695678 -0.050604425
-0.11045713 0.0054465444 0.24399194 0.28782588 0.1772369 0.16541027 0.24258725 0.13590981
-0.07701451 -0.048310038 0.098534726 0.0020181881 -0.06551297 -0.11095558
00000000: 1bb3 f4bb b53e 77bd b1ad 51be c3b1 8bbd
00000010: 3b40 913d efe8 ac3d 4158 f3bd 20f6 06be
00000020: deb2 0dbe 70b8 a73d a14c 063e fcb6 1d3d
00000030: 718f 90be 994f 6dbe 80e6 10be c803 493e
00000040: 6c53 893e 11a5 143e 8bbb b8bd 6cc7 06be
00000050: e5fe 183d 6677 523e 4cc3 ed3d 788c 743e
00000060: 8ad9 493c 6f81 973d eec2 403e 8e74 de3d
00000070: 3a5f 103e a155 c83d e4c8 5fbe 8315 713c
00000080: 9ae7 adbd aaf5 95bd 03d7 e3bd 7f77 77be
00000090: 7756 60be 6556 13bd 3a77 7d39 6408 a43c
000000a0: 37bd b23d 6a9c dfbd b8f6 12be 6e78 cabd
000000b0: 9642 d8bd 8e4c 913d d5a8 f83d 6986 7a3d
000000c0: d6aa 153d 8c1e 6a3d 9dc8 863d f034 5c3e
000000d0: 31ec 043d fa20 acbd 270f cd3d 4daf 5dbd
000000e0: 1387 703e 996d 4fbe 64eb 83be f102 14bd
000000f0: 3fad 93bb c522 bf3e 0165 d03d 8ed6 89bd
00000100: 9c71 d33d 7079 25be 7e56 523e 639f c03e
00000110: 509b dd3d 5cbf 693d 01d5 12be 9e0d 40be
00000120: 4c4c 0b3d 483f f83d f0b3 353d d5d5 443d
00000130: dd5a 6b3e 4f64 a43d fc42 c13d e91e 5bbd
00000140: 5caf 4cbe 6e2a 933e 5eb0 b13d 6b5d 60be
00000150: 17e8 96bd e5f1 1fbc 469a 7d3e bc9e 85bd
00000160: 912f 14bd 04ce 0dbe 83d8 8c3d f4a6 303e
00000170: 36e3 a2bc 7d59 9f3c 220e 05be 6b92 be3d
00000180: dc84 ef3d 6fa4 3fbd c449 c7bd d15d 77bd
00000190: 6850 603d 1e5b 6e3d c892 0c3d 0137 0d3d
000001a0: 8c63 cebd 654c c23d e4f9 adbc d563 abbd
000001b0: 4b28 a7bc 956f 683d 4848 8f3d 5687 3d3e
000001c0: 8f5d e03d f9b9 9c3e 355b ae3e 8baf 80bd
000001d0: bf20 943c 5f58 b33d 4aa0 67bd e96b c43c
000001e0: 9662 393d ea16 52bb 8da5 47be 0ecd 6cbe
000001f0: 4072 6ebe da6a 7ebc 2d9e 8ab9 930e d1bd
00000200: 0db6 16be d2a2 56be d45a 5abd be37 bfbd
00000210: ecd5 24be 7e87 0cbb 663e 0c3e 9646 4fbd
00000220: 5937 e2bd ed78 b23b 06d9 793e ea5d 933e
00000230: 977d 353e 4f61 293e cb68 783e f12b 0b3e
00000240: c9b9 9dbd bfe0 45bd 93cc c93d 9443 043b
00000250: aa2b 86bd ae3c e3bd

conv1.bias f4 [6]
-0.2284823 -0.43564257 -0.31700677 -0.12445843 -0.24952835 -0.2667838
00000000: 44f7 69be 8b0c dfbe b64e a2be 10e4 febd
00000010: 5c84 7fbe e397 88be

conv2.weight f4 [16, 6, 5, 5]
-0.08619294 -0.19924115 -0.07081231 -0.08846696 -0.0045747287 -0.13436872 -0.19557607 -0.19687483
-0.13379459 -0.052781235 -0.14923671 -0.023522172 -0.09223541 -0.13302258 0.0766451 -0.15564571
-0.03535585 -0.14120612 -0.21774574 0.02220331 6.27026e-05 -0.11344188 -0.013629346 -0.09032376
-0.053918887 -0.24840322 -0.119980715 0.10346819 0.042818185 -0.11269425 -0.17350797 -0.15643609
0.1716089 0.12719262 -0.080194294 -0.16482516 -0.2088955 -0.031824995 -0.15003785 -0.20533746
-0.19893041 -0.069204204 -0.16508208 0.007927952 -0.10269438 -0.0887869 -0.29817307 -0.2302539
-0.17001626 -0.03804866 -0.10296811 0.0018707991 0.012878207 0.108190596 0.017752491 -0.08289143
0.0017683591 -0.1425761 0.048533097 0.07958913 -0.10299531 -0.043292604 -0.06811399 -0.03625101
0.07264497 0.07118856 -0.06682069 0.026530083 -0.15638928 0.0954425 -0.12316394 -0.038458083
0.046020646 -0.029646344 0.02119043 0.1650879 -0.15583259 -0.058328357 0.13831797 -0.09927093
-0.055427723 -0.110228814 -0.0819048 0.0595087 0.002288464 -0.090925224 -0.08053276 0.058983296
-0.059572063 -0.06980165 -0.091667145 -0.06347846 0.029237624 -0.08053559 -0.0365325 -0.084991105
0.00929118 0.008681074 -0.004946806 -0.06106079 -0.19992672 -0.03864624 -0.07797579 -0.063923426
-0.011613638 -0.09059513 -0.024477066 -0.027310947 -0.16462827 -0.108646534 -0.09357174 -0.062361576
-0.04058745 -0.20838602 -0.14541963 -0.071468934 -0.17870429 -0.12164433 -0.06323436 -0.10435903
0.008433076 -0.11201132 -0.07951306 -0.027936228 0.043750837 -0.15745582 -0.11158576 -0.075861864
-0.05821383 0.027916199 -0.106789246 -0.035491236 -0.12447469 -0.08784163 -0.11678929 -0.061248217
0.0036646065 -0.13747708 -0.17822422 -0.10897171 0.00063267094 -0.09154945 0.04566966 -0.062133867
-0.018892309 -0.048066348 -0.14587939 0.041302662 -0.023821414 -0.20263179 0.12458386 -0.07656116
-0.2565429 -0.05670376 0.14341918 0.22711183 0.074963145 -0.11306586 -0.15157828 0.15491463
0.0796527 0.010188765 0.050876595 -0.08486778 0.12569237 -0.03926447 -0.11841907 -0.21082279
-0.07472131 0.10546009 0.043653022 0.035054512 0.08828984 0.0022938077 0.09125235 -0.017772693
0.16860099 0.11205352 -0.0387515 -0.014211749 -0.047310118 -0.06954599 -0.04683871 0.061208982
-0.035011306 0.1764458 0.07665903 -0.10421282 -0.17405272 -0.012213807 -0.00060705596 -0.082672924
-0.13668147 -0.05020224 -0.20589806 -0.07159404 -0.11824312 -0.037767123 -0.12775701 -0.1602513
0.041484848 -0.19012095 -0.18013999 0.031273935 0.053029474 0.07044139 -0.0012546176 -0.05361799
0.016766412 0.07915526 -0.058246948 -0.05735411 -0.1356441 0.013963497 -0.008056478 -0.20000085
-0.17922048 -0.04815146 -0.09422254 0.027085634 0.0335628 0.062381845 -0.013474033 -0.0014603945
0.039577078 0.07794191 -0.041757092 -0.04605705 -0.039534185 0.031806406 0.10512061 -0.026485782
-0.22598498 0.0047864835 0.064989455 0.0641088 0.03382056 -0.32353753 -0.033865158 0.1863542
0.10549652 0.02714541 -0.32186675 0.07370644 0.17425793 0.13005504 0.023428211 -0.100117765
0.12823312 0.1990899 -0.2651672 -0.080153726 -0.15020537 -0.077635705 -0.18467163 0.13723421
00000000: ed85 b0bd df05 4cbe 0b06 91bd 2a2e b5bd
00000010: 9be7 95bb f497 09be 1845 48be 8e99 49be
00000020: 7301 09be 2331 58bd 82d1 18be 92b1 c0bc
00000030: ebe5 bcbd 1237 08be 1bf8 9c3d 9761 1fbe
00000040: 4cd1 10bd 5698 10be bdf8 5ebe b7e3 b53c
00000050: 347f 8338 3754 e8bd 9f4d 5fbc aafb b8bd
00000060: 0dda 5cbd 6a5d 7ebe 73b8 f5bd 21e7 d33d
00000070: 1f62 2f3d 3ecc e6bd 13ac 31be c830 20be
00000080: 3eba 2f3e c83e 023e e83c a4bd edc7 28be
00000090: b4e8 55be ed5a 02bd 86a3 19be fc43 52be
000000a0: 6ab4 4bbe efba 8dbd 470b 29be 3ee4 013c
000000b0: 6e51 d2bd e8d5 b5bd 24aa 98be aec7 6bbe
000000c0: be18 2ebe e9d8 1bbd f2e0 d2bd 9a35 f53a
000000d0: 1dff 523c 0893 dd3d ac6d 913c fbc2 a9bd
000000e0: 49c8 e73a 78ff 11be a4ca 463d a0ff a23d
000000f0: 35ef d2bd 9653 31bd 597f 8bbd f07b 14bd
00000100: e3c6 943d 4fcb 913d 49d9 88bd 9e55 d93c
00000110: 8324 20be 5c77 c33d 603d fcbd 3986 1dbd
00000120: 2580 3c3d e4dc f2bc 8d97 ad3c cd0c 293e
00000130: 9492 1fbe b7e9 6ebd 3aa3 0d3e 8f4e cbbd
00000140: 2e08 63bd a5bf e1bd b4bd a7bd 65bf 733d
00000150: 0efa 153b 0137 babd 5cee a4bd 7898 713d
00000160: d601 74bd 2bf4 8ebd fcbb bbbd ff00 82bd
00000170: be83 ef3c d8ef a4bd 1aa3 15bd d10f aebd
00000180: 093a 183c 103b 0e3c d118 a2bb e11a 7abd
00000190: 97b9 4cbe 854b 1ebd c5b1 9fbd 49ea 82bd
000001a0: 2147 3ebc f189 b9bd 2184 c8bc 35bb dfbc
000001b0: 5094 28be 1382 debd 8aa2 bfbd da6e 7fbd
000001c0: 073f 26bd 2563 55be e2e8 14be 4e5e 92bd
000001d0: 42fe 36be aa20 f9bd 0481 81bd 30ba d5bd
000001e0: e22a 0a3c 3166 e5bd bed7 a2bd 84da e4bc
000001f0: 1434 333d 193c 21be 1387 e4bd 775d 9bbd
00000200: a071 6ebd 83b0 e43c 52b4 dabd 425f 11bd
00000210: 96ec febd 50e6 b3bd 392f efbd 69df 7abd
00000220: e529 703b cbc6 0cbe 6980 36be 8f2c dfbd
00000230: d4d9 253a 477e bbbd 1c10 3b3d 1580 7ebd
00000240: 0bc4 9abc 38e1 44bd 6861 15be fb2c 293d
00000250: 2025 c3bc b57e 4fbe d325 ff3d 19cc 9cbd
00000260: 9759 83be 3442 68bd 7adc 123e 0190 683e
00000270: 4786 993d 138f e7bd 5637 1bbe f1a1 1e3e
00000280: f420 a33d c7ee 263c fa63 503d 29cf adbd
00000290: 80b5 003e c8d3 20bd b385 f2bd eee1 57be
000002a0: 7c07 99bd 76fb d73d 83cd 323d 5295 0f3d
000002b0: 4ed1 b43d b553 163b 83e2 ba3d 0a98 91bc
000002c0: bda5 2c3e 517c e53d e5b9 1ebd 65d8 68bc
000002d0: 41c8 41bd 216e 8ebd f2d9 3fbd 45b6 7a3d
000002e0: 0468 0fbd 35ae 343e 69ff 9c3d 886d d5bd
000002f0: e03a 32be 6b1c 48bc d622 1fba 6c50 a9bd
00000300: 3af6 0bbe dda0 4dbd f1d6 52be e59f 92bd
00000310: 7329 f2bd b3b1 1abd bcd2 02be eb18 24be
00000320: 04ec 293d 11af 42be 9e76 38be 1919 003d
00000330: 6f35 593d 9343 903d fb71 a4ba 8a9e 5bbd
00000340: b759 893c 271c a23d 5a94 6ebd 25ec 6abd
00000350: 49e6 0abe 27c7 643c 51ff 03bc 06cd 4cbe
00000360: 9385 37be 773a 45bd bff7 c0bd b1e2 dd3c
00000370: 2679 093d 1b84 7f3d 31c2 5cbc b56a bfba
00000380: 931b 223d 02a0 9f3d 7c09 2bbd 51a6 3cbd
00000390: 99ee 21bd 6f47 023d 7949 d73d b6f8 d8bc
000003a0: 9b68 67be efd7 9c3b 3119 853d 794b 833d
000003b0: 6d87 0a3d b6a6 a5be 31b6 0abd a3d3 3e3e
000003c0: 8f0e d83d 0d60 de3c b8cb a4be 67f3 963d
000003d0: ac70 323e 262d 053e 85ec bf3c 8b0a cdbd
000003e0: 8b4f 033e 39de 4b3e ffc3 87be a327 a4bd
000003f0: 70cf 19be 78ff 9ebd 8f1a 3dbe 2087 0c3e

conv2.bias f4 [16]
-0.12610741 -0.044341076 -0.04124618 -0.20170671 -0.25490984 -0.08812874 0.087341286 -0.18974534
-0.16662903 0.09197024 -0.17377862 -0.13266936 -0.04399969 -0.21781437 -0.2218191 -0.08291119
00000000: 4d22 01be fd9e 35bd c1f1 28bd 348c 4ebe
00000010: 8b83 82be d77c b4bd fddf b23d 9a4c 42be
00000020: cda0 2abe e55a bc3d 06f3 31be 7ada 07be
00000030: 0539 34bd bb0a 5fbe 8c24 63be 58cd a9bd

fc1.weight f4 [120, 256]
0.200727 0.15655419 0.043319076 0.0061296965 -0.007716258 0.0721399 0.09690839 0.069515385
-0.08458327 0.048565023 0.11146164 0.039865516 0.04432106 0.0097710015 0.10031039 0.1294249
-0.09628742 0.1384595 0.08372756 -0.052167438 -0.17109782 -0.09134228 -0.14535429 0.20260726
-0.102341935 0.055050552 -0.04623896 0.025995413 -0.09895076 0.032240164 -0.1609804 -0.25377807
-0.2157941 -0.21026248 -0.06149885 -0.2063546 0.06108652 0.14147879 0.13595673 0.04795965
-0.09596778 -0.23649451 -0.31287572 -0.10782034 0.05023593 0.0043968824 0.122487254 0.21281908
-0.36068764 -0.22989967 0.038771465 0.049034692 0.032836106 0.13615388 0.11016585 0.19403943
-0.21474585 -0.07106128 0.0106042065 0.0020565432 -0.19457369 -0.043630764 -0.0090375645 0.064124145
-0.236775 -0.016916836 0.09993339 -0.03647635 0.031635117 -0.020416597 0.10269932 -0.02305573
0.03178591 -0.060156815 -0.2245095 -0.054428943 0.116860926 -0.06418714 0.11814029 0.31675783
0.047767065 -0.04668702 0.011720634 -0.0063727433 -0.0124168 -0.017843915 0.023708008 0.03789265
-0.048520368 0.020557735 0.031913977 0.0036422573 0.028891744 0.03116792 0.0013722077 -0.015990416
0.15632465 0.14607911 0.070686765 0.039063852 -0.023677418 0.017892873 -0.2372954 -0.20088738
-0.14379016 0.07555107 0.109546274 -0.14480148 -0.12045327 0.18837886 -0.0035005538 -0.12467199
0.11201428 0.115681365 0.07600699 0.011776535 0.007873305 0.10441706 0.05024596 -0.36699215
0.057608087 0.16337721 0.11773766 -0.076121606 -0.110981174 0.22044174 0.0552066 0.033353366
-0.06498526 0.02636722 -0.18328248 0.07319506 -0.14880235 0.073719904 -0.0946674 0.05972739
-0.14063203 -0.031573664 -0.18977287 -0.053137187 -0.070024446 -0.12770754 -0.28118604 -0.33531895
-0.13461995 -0.082771696 -0.044938162 -0.14480759 -0.05508978 0.040491965 0.043453526 0.067174785
0.071243666 0.068467505 0.06819372 0.027028698 -0.059778884 0.07691619 0.05940065 0.03612717
0.09464316 0.03186382 0.19049837 0.10392153 -0.11588358 -0.07101514 0.05148211 -0.011460608
0.021788983 -0.038785785 -0.025784843 -0.123253725 0.069034785 -0.012638228 0.0016681211 0.09657396
0.006886214 -0.04964299 0.07780874 0.06471281 0.2471323 -0.102741584 -0.14547287 0.11729195
-0.18798691 -0.06384624 -0.03621743 0.30353576 0.21035033 -0.037158754 0.010697033 -0.106804214
-0.010709775 -0.09951979 0.030748397 -0.16533588 0.07466292 0.13921215 0.16490546 -0.025030525
-0.05686472 0.07978588 -0.081397355 -0.061218824 -0.034795366 0.110920005 -0.22021976 -0.28434208
0.08596376 0.09552646 0.021552889 0.11777726 0.20754139 -0.120372474 -0.08804556 0.12597282
-0.13677247 -0.015331738 -0.023228986 0.112129435 -0.055736836 -0.072782576 0.060116615 -0.056838907
0.11670774 0.04574503 0.04672678 -0.22483073 0.02941445 -0.07400607 0.17260446 -0.29779688
0.06942051 -0.09174803 -0.18119033 -0.06661983 0.055400956 -0.03744989 -0.07502867 0.102073796
-0.18888073 0.01511757 -0.070998654 0.035666596 -0.013449917 -0.013955238 -0.32738867 0.08656025
0.037457768 -0.095876366 -0.21138556 0.05640612 -0.038944606 -0.16995569 -0.11096045 -0.12785713
00000000: 618b 4d3e be4f 203e 586f 313d 9fdb c83b
00000010: aad8 fcbb 15be 933d e877 c63d 155e 8e3d
00000020: fe39 adbd 1eec 463d 0046 e43d 064a 233d
00000030: 008a 353d 8d16 203c 896f cd3d f687 043e
00000040: 5732 c5bd 54c8 0d3e 5b79 ab3d 86ad 55bd
00000050: 4434 2fbe a911 bbbd c1d7 14be 4778 4f3e
00000060: a698 d1bd b07c 613d 1065 3dbd 55f4 d43c
00000070: b2a6 cabd 430e 043d 0cd8 24be 33ef 81be
00000080: 21f9 5cbe 0c4f 57be 38e6 7bbd 9f4e 53be
00000090: dc35 7a3d d1df 103e 3e38 0b3e 5771 443d
000000a0: c18a c4bd 9e2b 72be 3f31 a0be e9d0 dcbd
000000b0: 31c4 4d3d b913 903b 99da fa3d 3fed 593e
000000c0: 0dac b8be d26a 6bbe d4ce 1e3d 9ad8 483d
000000d0: 277f 063d ec6b 0b3e a29e e13d 46b2 463e
000000e0: 56e6 5bbe 9488 91bd 44bd 2d3c 12c7 063b
000000f0: 533e 47be 2cb6 32bd 4b12 14bc 8553 833d
00000100: 2575 72be 2d95 8abc e1a9 cc3d 3a68 15bd
00000110: d393 013d b540 a7bc 0554 d23d 5fdf bcbc
00000120: f131 023d fe66 76bd d2e5 65be e2f0 5ebd
00000130: c854 ef3d 8c74 83bd 89f3 f13d 152e a23e
00000140: 66a7 433d e43a 3fbd e707 403c 72d2 d0bb
00000150: d56f 4bbc 672d 92bc 4c37 c23c 5335 1b3d
00000160: 4bbd 46bd b268 a83c 3bb8 023d f0b2 6e3b
00000170: 61ae ec3c de53 ff3c a6db b33a 55fe 82bc
00000180: 9213 203e c395 153e 39c4 903d 6b01 203d
00000190: 25f7 c1bc 1394 923c 91fd 72be 6cb5 4dbe
000001a0: ba3d 13be 85ba 9a3d cc59 e03d d746 14be
000001b0: 34b0 f6bd 63e6 403e 8c69 65bb 0754 ffbd
000001c0: be67 e53d 5aea ec3d 8ea9 9b3d 5ef2 403c
000001d0: 09ff 003c 9dd8 d53d b5ce 4d3d 65e6 bbbe
000001e0: 75f6 6b3d 5b4c 273e 7120 f13d a5e5 9bbd
000001f0: 194a e3bd 7bbb 613e 5120 623d 8a9d 083d
00000200: fe16 85bd 1100 d83c 67ae 3bbe 4be7 953d
00000210: a55f 18be 76fa 963d fbe0 c1bd b5a4 743d
00000220: d801 10be 6353 01bd d253 42be 61a6 59bd
00000230: fa68 8fbd c4c5 02be 9ef7 8fbe edae abbe
00000240: d0d9 09be 3584 a9bd 1411 38bd 7148 14be
00000250: d2a5 61bd e7da 253d 53fc 313d ef92 893d
00000260: 33e8 913d b138 8c3d 26a9 8b3d 4a6b dd3c
00000270: b4da 74bd 3c86 9d3d 194e 733d 15fa 133d
00000280: 46d4 c13d a383 023d 0112 433e d0d4 d43d
00000290: 5f54 edbd 6370 91bd e8de 523d 46c5 3bbc
000002a0: cf7e b23c d8dd 1ebd bc3a d3bc 736c fcbd
000002b0: 1c62 8d3d 9210 4fbc dba4 da3a 91c8 c53d
000002c0: c0a5 e13b 7356 4bbd 305a 9f3d 2688 843d
000002d0: 4010 7d3e 2e6a d2bd d7f6 14be c336 f03d
000002e0: a47f 40be d1c1 82bd ba58 14bd 0a69 9b3e
000002f0: 1466 573e c733 18bd 9c42 2f3c 2bbc dabd
00000300: 0d78 2fbc 08d1 cbbd 10e4 fb3c cf4d 29be
00000310: dfe8 983d a18d 0e3e fadc 283e d10c cdbc
00000320: fbea 68bd c866 a33d a8b3 a6bd 97c0 7abd
00000330: 9685 0ebd 072a e33d 4a81 61be 4995 91be
00000340: c50d b03d 60a3 c33d af8f b03c 3435 f13d
00000350: bb85 543e d885 f6bd 3b51 b4bd 05ff 003e
00000360: 150e 0cbe f831 7bbc b74a bebc 1ea4 e53d
00000370: 4f4c 64bd 080f 95bd d73c 763d eacf 68bd
00000380: 7804 ef3d 245f 3b3d 9464 3f3d 073a 66be
00000390: 93f6 f03c 7f90 97bd 39bf 303e d578 98be
000003a0: 572c 8e3d 64e6 bbbd f589 39be fa6f 88bd
000003b0: 1dec 623d 0e65 19bd a2a8 99bd 110c d13d
000003c0: f369 41be afaf 773c be67 91bd 2317 123d
000003d0: 0a5d 5cbc 83a4 64bc 7d9f a7be 8046 b13d
000003e0: 516d 193d d45a c4bd 7575 58be 1b0a 673d
000003f0: 6184 1fbd dd08 2ebe 3b3f e3bd fbec 02be

fc1.bias f4 [120]
-0.09129932 -0.09581902 -0.10692882 -0.12805104 -0.06934421 0.067575246 -0.0938688 -0.0033563334
0.06367682 0.04688467 -0.041852698 0.006961622 -0.033219628 0.04704904 -0.12204869 -0.011907103
-0.0027320993 0.031811096 -0.09535746 0.17994103 -0.045965195 -0.10341502 -0.077689946 -0.1391704
0.029535066 -0.12904534 0.008037498 -0.04029285 -0.0059988806 0.025445133 -0.06761497 -0.114834085
-0.043781966 -0.023598585 -0.005710166 -0.048540257 -0.107759476 -0.028697522 0.061338615 -0.011816652
-0.09903914 -0.07481694 -0.025014764 0.07864302 -0.016843552 0.08039922 -0.14158967 0.048895217
0.05430615 -0.003902974 -0.05724776 -0.006136225 0.019532029 -0.2504817 0.04696954 0.06290324
-0.061847374 0.06757703 -0.06661542 0.0018884367 -0.05124842 -0.037285652 -0.12679005 0.0068946257
0.02610372 -0.0239491 0.1212879 -0.0049815415 0.06488312 0.05641335 -0.06282282 0.0389697
0.021808745 0.020856256 0.08904534 -0.009273175 -0.05453678 0.10999597 -0.0028923093 -0.04472853
-0.051346425 -0.049639713 -0.024585359 0.045576558 -0.14846621 -0.005280744 -0.045059636 -0.005886659
-0.029365074 -0.16436929 -0.133234 -0.041765954 -0.059085213 -0.037690047 -0.046389133 -0.09451335
-0.060442723 0.048833404 -0.006634863 0.013164114 0.07973453 -0.030453948 -0.043762915 -0.12434875
-0.1515888 0.028050302 -0.08858955 -0.10218546 -0.13340181 -0.0010259754 -0.16990589 0.054243486
-0.10384114 -0.039127473 0.010923957 -0.06681935 -0.14431852 -0.028952446 -0.016282573 0.016440734
00000000: 23fb babd c33c c4bd 7ffd dabd d01f 03be
00000010: 5604 8ebd e464 8a3d 493e c0bd eef5 5bbb
00000020: fe68 823d 240a 403d bc6d 2bbd 511e e43b
00000030: 4e11 08bd 7fb6 403d aaf4 f9bd 0216 43bc
00000040: 050d 33bb 5a4c 023d c64a c3bd 7642 383e
00000050: 0046 3cbd 41cb d3bd e81b 9fbd af82 0ebe
00000060: 86f3 f13c 7624 04be b6af 033c 1e0a 25bd
00000070: 4292 c4bb 5072 d03c b879 8abd 222e ebbd
00000080: b854 33bd d251 c1bc 581c bbbb 26d2 46bd
00000090: 00b1 dcbd 1117 ebbc 333e 7b3d a19a 41bc
000000a0: 08d5 cabd a039 99bd c3eb ccbc 970f a13d
000000b0: 7dfb 89bc 59a8 a43d e2fc 10be 5a46 483d
000000c0: 2070 5e3d 0ac9 7fbb a17c 6abd 6312 c9bb
000000d0: a201 a03c 233f 80be 2263 403d 6ad3 803d
000000e0: ac53 7dbd d365 8a3d aa6d 88bd 6c85 f73a
000000f0: dde9 51bd d7b8 18bd 40d5 01be 50ec e13b
00000100: 78d7 d53c e730 c4bc ca65 f83d 333c a3bb
00000110: 71e1 843d af11 673d 40a9 80bd b19e 1f3d
00000120: 41a8 b23c bdda aa3c 675d b63d 84ee 17bc
00000130: f561 5fbd 9145 e13d e68c 3dbb 4335 37bd
00000140: a150 52bd 0353 4bbd 3c67 c9bc 7cae 3a3d
00000150: 8707 18be 170a adbb 7490 38bd e0e4 c0bb
00000160: 068f f0bc 6c50 28be 7e6e 08be c712 2bbd
00000170: 5603 72bd e160 1abd 8802 3ebd 3790 c1bd
00000180: ca92 77bd 8905 483d 4469 d9bb 4cae 573c
00000190: db4b a33d 8f7a f9bc be40 33bd 8faa febd
000001a0: 183a 1bbe bfc9 e53c 706e b5bd 9c46 d1bd
000001b0: 7c9a 08be 067a 86ba cffb 2dbe 6b2e 5e3d
000001c0: aaaa d4bd 2144 20bd 66fa 323c 95d8 88bd
000001d0: 3cc8 13be ae2d edbc 0863 85bc b8ae 863c

fc2.weight f4 [84, 120]
0.041007377 0.00034958366 -0.13305242 0.10798695 -0.05274397 0.00041698918 0.025049597 -0.09226516
-0.12787618 -0.08089098 0.02690101 0.08336932 -0.03548553 -0.107440785 0.11677402 -0.038671
0.032327425 0.004611642 0.044472072 0.04313089 -0.12937622 -0.11194257 -0.07127265 -0.20377955
-0.188117 0.073422976 -0.036815986 -0.05628821 0.043602053 -0.060541343 -0.096923396 -0.1795233
-0.033045102 0.040063933 -0.060790647 -0.11024955 -0.16284962 -0.13143723 0.022717949 0.054901566
0.1481112 0.15678278 -0.16200024 0.08028103 -0.09529191 -0.055766944 -0.09366711 -0.004025278
-0.09562846 0.009724506 0.13191357 0.19090484 -0.018348014 0.2923435 0.011752496 -0.16016059
0.19946305 -0.1327233 -0.038645376 -0.13406844 -0.0862098 0.054916292 0.16032013 -0.0005962949
-0.094414234 -0.11400573 -0.2263804 -0.008061237 -0.048498835 -0.024595134 -0.1415128 -0.12368664
-0.15111427 -0.038790423 0.032994393 -0.21686 0.04897094 -0.1466028 0.08876949 0.0011628504
-0.030886166 0.02440204 -0.044354327 0.02460524 -0.09685922 0.0062268954 -0.003319229 -0.14857578
0.033047512 -0.053808045 0.12377494 0.06547034 -0.038086962 0.013603315 -0.0326945 -0.15085657
-0.065604724 -0.14632988 -0.04733036 -0.021143012 0.10801735 0.0074915816 0.032198012 0.061942738
0.052994356 -0.0016277944 0.108445704 -0.010457295 -0.038843878 -0.02804472 -0.006121436 -0.06238013
0.0072134933 -0.12811063 -0.013791392 -0.027347645 -0.10572054 0.01213575 -0.013173118 0.054171033
-0.12304273 -0.03060054 -0.06702762 0.1913328 0.113962784 -0.09308955 -0.019106472 -0.2299786
-0.27868265 -0.24190219 -0.039377846 0.062565446 0.03307515 -0.21132956 0.113116816 0.0091342
-0.04777928 0.22867325 0.041566107 -0.076057926 -0.19747375 -0.18928736 0.089544795 -0.33120617
-0.30332798 0.08032526 -0.049925014 0.015864901 -0.06275628 0.019816684 0.06653649 0.24402897
0.05510072 -0.032311786 -0.07190357 -0.00274507 0.09352135 -0.3917053 0.018700853 0.0463041
-0.008818861 0.22239044 -0.057576485 -0.073001854 -0.009747394 -0.23585583 0.07987103 0.014361326
-0.0744759 0.0388223 -0.0714903 -0.088125944 0.10603193 0.31232285 -0.16306236 0.002126146
-0.06677576 0.03784897 0.040534783 0.29202485 0.18038972 0.025536004 0.12961312 0.15453798
-0.2902371 -0.0040511424 -0.11683327 0.017168012 0.075390704 0.10011409 0.010719636 -0.054435622
0.07171832 0.05802306 -0.14667358 -0.35751367 0.09749148 -0.020821257 -0.13070288 -0.13479915
-0.032161 -0.06021728 0.2479776 0.2145675 -0.01968725 0.11457493 0.0009905171 0.049627133
-0.019830944 0.013881783 -0.2113045 0.29418507 0.13407485 -0.02516305 -0.08757491 0.07825634
0.032182995 0.027629504 0.01806047 -0.1563476 -0.119902 0.1685 0.16070962 -0.09496472
-0.03006731 -0.055017836 -0.25697702 0.022863379 -0.015341763 -0.050369672 0.021377256 -0.058675148
0.076340474 -0.28804877 0.0005362972 0.0035906443 -0.02154726 0.16291612 -0.03048127 -0.007393116
0.027429791 -0.042000886 -0.071365684 -0.036446683 0.00248826 0.03237711 0.076218605 -0.07763462
-0.2407293 0.17595473 -0.029291037 -0.0044214595 -0.01929083 -0.11009821 -0.037302803 0.006669038
00000000: 5af7 273d 5348 b739 e53e 08be 4328 dd3d
00000010: 100a 58bd 579f da39 d034 cd3c 84f5 bcbd
00000020: f9f1 02be 2caa a5bd 825f dc3c 89bd aa3d
00000030: 4659 11bd ea09 dcbd 3827 ef3d 7c65 1ebd
00000040: c369 043d 421d 973b 5928 363d 04aa 303d
00000050: 337b 04be 2542 e5bd 65f7 91bd 96ab 50be
00000060: bea1 40be c95e 963d 5ccc 16bd 778e 66bd
00000070: 1198 323d 33fa 77bd c67f c6bd f5d4 37be
00000080: 4d5a 07bd 141a 243d 9dff 78bd 84ca e1bd
00000090: 0dc2 26be 7b97 06be fe1a ba3c 77e0 603d
000000a0: 76aa 173e aa8b 203e 64e3 25be 616a a43d
000000b0: 6828 c3bd e16b 64bd 8bd4 bfbd 7be6 83bb
000000c0: dbd8 c3bd 8953 1f3c 5a14 073e 8f7c 433e
000000d0: 934e 96bc 0cae 953e 8a8d 403c 2301 24be
000000e0: 0b40 4c3e 9ee8 07be 9d4a 1ebd 3d49 09be
000000f0: c38e b0bd e8ef 603d f62a 243e ac50 1cba
00000100: 405c c1bd d67b e9bd 43d0 67be 4713 04bc
00000110: b7a6 46bd bc7b c9bc bbe8 10be 6c4f fdbd
00000120: b3bd 1abe b5e2 1ebd 2125 073d 8c10 5ebe
00000130: c195 483d 0b1f 16be c7cc b53d c96a 983a
00000140: fc04 fdbc c9e6 c73c e2ac 35bd ee90 c93c
00000150: 205e c6bd fc0a cc3b 6c87 59bb 4024 18be
00000160: d45c 073d d365 5cbd b77d fd3d 5015 863d
00000170: 1301 1cbd 70e0 5e3c abea 05bd 257a 1abe
00000180: c55b 86bd 80d7 15be 7bdd 41bd 1c34 adbc
00000190: 3338 dd3d f17b f53b 10e2 033d abb7 7d3d
000001a0: 9c10 593d b75b d5ba c818 de3d 1355 2bbc
000001b0: c21a 1fbd 0abe e5bc 5496 c8bb 4f82 7fbd
000001c0: 2b5f ec3b 6f2f 03be 4af5 61bc 2b08 e0bc
000001d0: 0384 d8bd 06d5 463c 10d4 57bc 72e2 5d3d
000001e0: d4fd fbbd fcad fabc c745 89bd bfec 433e
000001f0: 5265 e93d bca5 bebd 2d85 9cbc 837f 6bbe
00000200: 7eaf 8ebe 35b5 77be aa4a 21bd 5022 803d
00000210: cf79 073d c766 58be caa9 e73d 9da7 153c
00000220: 35b4 43bd 5229 6a3e 3941 2a3d 42c4 9bbd
00000230: 8f36 4abe 8cd4 41be 4363 b73d db93 a9be
00000240: ce4d 9bbe 9281 a43d 2c7e 4cbd 1cf7 813c
00000250: 5d86 80bd 9956 a23c 4944 883d bbe2 793e
00000260: 4bb1 613d 5d59 04bd 2e42 93bd a2e6 33bb
00000270: 1f88 bf3d 998d c8be 8832 993c 5ea9 3d3d
00000280: fc7c 10bc 52ba 633e 52d5 6bbd ff81 95bd
00000290: 89b3 1fbc 3184 71be 6c93 a33d c44b 6b3c
000002a0: d286 98bd 2204 1f3d 8269 92bd 607b b4bd
000002b0: 4527 d93d c8e8 9f3e d2f9 26be d056 0b3b
000002c0: bbc1 88bd 8607 1b3d cd07 263d 4884 953e
000002d0: 15b8 383e e230 d13c 4db9 043e 343f 1e3e
000002e0: f599 94be 72bf 84bb 4846 efbd eea3 8c3c
000002f0: 7166 9a3d 9e08 cd3d 6aa1 2f3c e3f7 5ebd
00000300: 0ee1 923d 97a9 6d3d 9931 16be 080c b7be
00000310: 9da9 c73d 5791 aabc fad6 05be ca08 0abe
00000320: 41bb 03bd 65a6 76bd d7ed 7d3e 95b7 5b3e
00000330: 2847 a1bc 43a6 ea3d 3dd4 813a d245 4b3d
00000340: 8174 a2bc 6b70 633c 3560 58be 6d9f 963e
00000350: eb4a 093e be22 cebc 795a b3bd dc44 a03d
00000360: 51d2 033d 4557 e23c 8df3 933c 9619 20be
00000370: 2e8f f5bd 448b 2c3e 1091 243e dd7c c2bd
00000380: b84f f6bc 625a 61bd 7e92 83be fb4b bb3c
00000390: 055c 7bbc 6e50 4ebd 5b1f af3c 5a55 70bd
000003a0: 6558 9c3d 217b 93be 4c96 0c3a 0451 6b3b
000003b0: e183 b0bc 7cd3 263e dbb3 f9bc f441 f2bb
000003c0: 71b4 e03c 1f09 2cbd 2c28 92bd 1e49 15bd
000003d0: 1312 233b dc9d 043d 8018 9c3d e6fe 9ebd
000003e0: be81 76be 7a2d 343e c2f3 efbc e4e1 90bb
000003f0: cd07 9ebc 2c7b e1bd d3ca 18bd f287 da3b

fc2.bias f4 [84]
-0.24362755 -0.1708036 0.06554189 0.033344515 0.020380456 -0.06114205 -0.17604372 0.15192708
0.11715455 0.011783056 -0.09794171 -0.0153275635 -0.060808543 0.008295233 -0.11297437 -0.0355922
0.062404048 0.14683276 -0.058993652 0.10197181 -0.09652417 0.031666305 0.13112588 -0.03418559
-0.018703602 -0.023495503 -0.10504759 -0.033614863 -0.017022695 -0.08785139 -0.11433462 -0.0031211157
0.014491866 0.038649008 0.006360732 -0.10266396 0.18671195 0.030623913 -0.18786433 0.1158774
0.030046716 0.27694574 0.18432331 0.0750718 0.11274841 -0.10077283 -0.01628908 -0.069433816
-0.058929652 -0.116746664 0.072121695 0.06921183 0.04502915 -0.048281018 -0.018699102 -0.20998472
-0.15494363 -0.15246375 -0.042179085 -0.1299731 0.06179085 0.14293188 -0.056725457 0.08622686
-0.10171374 0.010582158 -0.00038435034 -0.09950223 0.042348787 0.075451456 0.0737877 -0.021832453
-0.054356232 -0.06995755 0.038506676 -0.07393464 -0.110589795 0.1650668 -0.05060408 0.007908984
-0.18854904 0.122144 -0.08503111 0.046308845
00000000: 8079 79be 24e7 2ebe d43a 863d 4294 083d
00000010: eaf4 a63c 1670 7abd ce44 34be c692 1b3e
00000020: baee ef3d b80d 413c aa95 c8bd 7620 7bbc
00000030: 6112 79bd bbe8 073c 1b5f e7bd 20c9 11bd
00000040: 639b 7f3d 545b 163e 54a3 71bd 99d6 d03d
00000050: 77ae c5bd 87b4 013d dd45 063e 3006 0cbd
00000060: 4c38 99bc a479 c0bc 3123 d7bd bdaf 09bd
00000070: 2e73 8bbc 6eeb b3bd 4528 eabd a28b 4cbb
00000080: 4b6f 6d3c 6c4e 1e3d b06d d03b 7b41 d2bd
00000090: 6b31 3f3e 00df fa3c 825f 40be 2151 ed3d
000000a0: 8824 f63c d5cb 8d3e 40bf 3c3e 3ebf 993d
000000b0: a3e8 e63d fc61 cebd ad70 85bc 5133 8ebd
000000c0: 3860 71bd e018 efbd 8ab4 933d efbe 8d3d
000000d0: 7c70 383d 51c2 45bd dc2e 99bc 3c06 57be
000000e0: 8ba9 1ebe 751f 1cbe fac3 2cbd ab17 05be
000000f0: 6718 7d3d bc5c 123e f458 68bd b597 b03d
00000100: 4b4f d0bd ca60 2d3c a182 c9b9 d3c7 cbbd
00000110: ec75 2d3d 4b86 9a3d 011e 973d f9d9 b2bc
00000120: a4a4 5ebd e745 8fbd 2db9 1d3d 0b6b 97bd
00000130: e77c e2bd 4507 293e 3946 4fbd af94 013c
00000140: 0013 41be a226 fa3d ca24 aebd 58ae 3d3d

fc3.weight f4 [10, 84]
-0.40318644 -0.25150582 -0.31677654 0.021208772 -0.15876086 -0.11755187 -0.18226285 -0.055505905
-0.009666094 -0.25227702 0.072947286 0.09789411 -0.44084066 0.13755439 0.07459534 -0.17638828
-0.054630797 -0.15308838 -0.14771141 0.17487772 -0.5860082 -0.226247 -0.06156927 0.060465418
0.02681453 -0.035059348 0.055144284 0.027629979 -0.19632544 0.024215717 -0.06743191 -0.00899865
0.13167574 -0.81315273 -0.2001097 -0.033312604 -0.3327963 -0.036971483 -0.3171361 -0.06441609
-0.34643346 -0.035408743 0.06470696 -0.32507786 -0.2505318 0.08497719 0.02995078 -0.20267004
-0.19504564 -0.034996077 -0.59047467 0.069775626 -0.31493908 -0.26297578 -0.38790348 -0.11934145
-0.04947272 -0.33617005 -0.18506488 -0.06312351 -0.3495726 0.069619596 -0.10265365 0.15815718
-0.111577146 0.032271635 -0.3051593 -0.045629226 0.027291313 0.07923944 -0.0067777615 -0.17357512
-0.56067014 -0.07176413 -0.1586142 -0.0033565643 -0.19309886 -0.15892948 -0.03645822 0.07337322
0.0232068 -0.23457496 -0.23800357 0.074302286 -0.16945145 -0.2061445 0.017695174 -0.3587161
0.093967326 0.009457587 0.04860477 -0.14201921 -0.5349584 -0.32315361 -0.20625763 -0.024538714
-0.24510187 -0.07767737 -0.49270567 0.13824409 0.020666396 0.08836089 -0.41950905 0.07534175
-0.58541083 0.07136131 -0.080120206 -0.079299316 0.03100468 -0.37134215 -0.4429127 -0.12929876
-0.02142632 -0.29911268 -0.35956913 -0.06891218 -0.20048736 -0.096860774 -0.72989625 -0.20481554
-0.22664465 0.14941695 -0.0060411533 -0.0673973 -0.26175672 -0.43706924 -0.18136746 0.08404807
0.08491088 -0.2551906 0.035307296 -0.24687217 -0.16711676 -0.22984831 0.12700412 -0.4937556
0.0847953 -0.22454162 -0.54841715 -0.5511776 0.052741803 0.0054025003 -0.09387196 -0.09747635
-0.1021596 -0.086852424 -0.034677688 -0.35533282 -0.02342201 -0.54701596 0.05676937 0.014683376
0.02695179 0.1400112 0.13581692 -0.2635405 -0.097887285 0.075120516 -0.13418636 -0.06750433
-0.15252021 -0.06538398 -0.40378755 -0.25061956 0.06447638 -0.418653 -0.011490133 -0.36257595
-0.004620035 0.11450792 -0.28573534 0.020297049 0.13586345 -0.2843049 -0.009112952 -0.34310287
-0.002209752 -0.24262771 -0.42931002 -0.04257126 0.13919015 -0.38215092 0.1010548 -0.16527331
-0.05024095 -0.2678628 -0.28337651 -0.2651169 0.024385989 -0.2639833 -0.09361025 -0.5497111
-0.020552175 0.071694374 -0.045262694 -0.1339351 -0.20347583 -0.070725404 -0.15208656 -0.27555463
0.019721614 -0.20732687 -0.22209291 0.12882952 -0.35448164 -0.08272776 -0.08875233 -0.11537659
-0.052821547 0.002342115 -0.08641148 0.1643938 0.0447053 -0.10354868 -0.011280658 0.019299267
0.08948369 -0.09587276 -0.27327806 -0.24545878 0.027317274 0.07768619 -0.065067284 -0.17298745
-0.038824942 0.12183918 -0.6220046 -0.016803622 -0.20291185 -0.22885968 -0.057614047 -0.031940695
-0.049371473 -0.28323007 -0.051370226 -0.05250966 -0.16048598 -0.0647588 -0.006151049 -0.20982832
-0.26010695 0.059721313 -0.18423636 -0.014812699 -0.2713005 -0.049043715 0.12150621 -0.15050323
-0.013336205 -0.11682561 -0.08055955 -0.050390568 -0.18594629 0.14550045 -0.022273595 4.1498265e-06
00000000: 746e cebe 5fc5 80be 8930 a2be 05be ad3c
00000010: 3592 22be 09bf f0bd 1da3 3abe 295a 63bd
00000020: 895e 1ebc 742a 81be 6365 953d b57c c83d
00000030: deb5 e1be 0fdb 0c3e 71c5 983d 219f 34be
00000040: 8bc4 5fbd 33c3 1cbe a941 17be 2513 333e
00000050: a204 16bf 4bad 67be 0f30 7cbd 96aa 773d
00000060: 25aa db3c 649a 0fbd f9de 613d 4458 e23c
00000070: 8909 49be 0a60 c63c be19 8abd 136f 13bc
00000080: 01d6 063e c72a 50bf 8fe9 4cbe cc72 08bd
00000090: 4764 aabe 696f 17bd aa5f a2be 95ec 83bd
000000a0: ba5f b1be c208 11bd 1585 843d 9b70 a6be
000000b0: b445 80be 8508 ae3d 575b f53c bc88 4fbe
000000c0: 0bba 47be 0c58 0fbd 5929 17bf 86e6 8e3d
000000d0: b23f a1be c3a4 86be 499b c6be 4a69 f4bd
000000e0: e8a3 4abd 7b1e acbe a681 3dbe e646 81bd
000000f0: 2efb b2be b894 8e3d 143c d2bd f5f3 213e
00000100: 8f82 e4bd 432f 043d d73d 9cbe b6e5 3abd
00000110: 0892 df3c 4a48 a23d fc17 debb adbd 31be
00000120: 1488 0fbf 12f9 92bd c36b 22be cef9 5bbb
00000130: b5bb 45be 69be 22be 3755 15bd b344 963d
00000140: 301c be3c 6b34 70be 35b7 73be cc2b 983d
00000150: ae84 2dbe 8b17 53be 78f5 903c a3a9 b7be
00000160: f171 c03d fff3 1a3c cc15 473d 7c6d 11be
00000170: 09f3 08bf 6474 a5be 3335 53be 6a05 c9bc
00000180: fcfb 7abe 5015 9fbd eb43 fcbe dc8f 0d3e
00000190: 934c a93c 8ef6 b43d e4c9 d6be c74c 9a3d
000001a0: 7cdd 15bf e125 923d 1016 a4bd ae67 a2bd
000001b0: 87fd fd3c 8f20 bebe 74c5 e2be e566 04be
000001c0: 4086 afbc 4c25 99be 7219 b8be d421 8dbd
000001d0: 8f4c 4dbe f15e c6bd 7bda 3abf 2abb 51be
000001e0: 8915 68be c200 193e def4 c5bb 9807 8abd
000001f0: fa04 86be 8ac7 dfbe 64b8 39be 6521 ac3d
00000200: c1e5 ad3d 58a8 82be 629e 103d 0fcc 7cbe
00000210: a820 2bbe 5b5d 6bbe 5e0d 023e 89cd fcbe
00000220: 29a9 ad3d 3dee 65be 1165 0cbf fa19 0dbf
00000230: ca07 583d 7507 b13b f13f c0bd aea1 c7bd
00000240: 0d39 d1bd afdf b1bd 310a 0ebd 2fee b5be
00000250: 84df bfbc 3d09 0cbf 0087 683d 8b92 703c
00000260: 00ca dc3c 195f 0f3e 9713 0b3e c8ee 86be
00000270: 2179 c8bd c9d8 993d 2668 09be b63f 8abd
00000280: 422e 1cbe 09e8 85bd 3ebd cebe 3551 80be
00000290: 310c 843d b059 d6be 1c41 3cbc 8ea3 b9be
000002a0: aa63 97bb 2183 ea3d e74b 92be ff45 a63c
000002b0: ca1f 0b3e 6990 91be 7e4e 15bc 2eab afbe
000002c0: 7dd1 10bb 6673 78be 86ce dbbe 345f 2ebd
000002d0: dd87 0e3e 49a9 c3be d2f5 ce3d 683d 29be
000002e0: 74c9 4dbd 5025 89be ba16 91be 67bd 87be
000002f0: 20c5 c73c d228 87be bbb6 bfbd deb9 0cbf
00000300: 095d a8bc 80d4 923d 6065 39bd 4826 09be
00000310: f85b 50be 7bd8 90bd 94bc 1bbe 7f15 8dbe
00000320: 398f a13c 7f4d 54be 536c 63be e3eb 033e
00000330: 9e7e b5be 2c6d a9bd c8c3 b5bd 904a ecbd
00000340: 685b 58bd 2b7e 193b 81f8 b0bd d956 283e
00000350: e81c 373d 5511 d4bd 82d2 38bc 7f19 9e3c
00000360: 3a43 b73d f058 c4bd 1aeb 8bbe 8c59 7bbe
00000370: 7ac8 df3c f019 9f3d ff41 85bd 9f23 31be
00000380: e706 1fbd d286 f93d b23b 1fbf c0a7 89bc
00000390: 20c8 4fbe 315a 6abe b5fc 6bbd 3fd4 02bd
000003a0: be39 4abd 8803 91be 9669 52bd 5f14 57bd
000003b0: 7056 24be 43a0 84bd bd8e c9bb 3cdd 56be
000003c0: bd2c 85be 569e 743d 75a8 3cbe f6b0 72bc
000003d0: e6e7 8abe 10e2 48bd 3fd8 f83d 851d 1abe
000003e0: 1980 5abc 4442 efbd 68fc a4bd 5766 4ebd
000003f0: b468 3ebe 12fe 143e 1d77 b6bc bd3e 8b36

fc3.bias f4 [10]
0.010426068 0.09711274 -0.0468131 0.025791677 0.0095066335 0.064927965 -0.17948571 0.01420333
0.06947598 -0.051828943
00000000: 19d2 2a3c 0be3 c63d 18bf 3fbd 1149 d33c
00000010: b6c1 1b3c f4f8 843d 1acb 37be 15b5 683c
00000020: 6c49 8e3d 964a 54bd
